lstm_best.pth (torch, 82729 bytes, 7 tensors)

lstm.weight_ih_l0 f4 [256, 3]
000000 f4 7b 37 3e d4 99 e5 3d 4a b2 d3 3d 8c 70 59 bd
       0.17918378 0.11210981 0.1033674 -0.05308585
000010 e8 43 97 3d 03 de d7 bd 9c 61 20 3e f4 e3 c8 bb
       0.07385999 -0.10540392 0.15662235 -0.0061306898
000020 b1 b2 bd bd e8 cf 8c ba 5e 51 b2 bd 11 6e 5d 3d
       -0.09262598 -0.0010743113 -0.08706926 0.054060046
000030 88 c4 84 3d b0 a5 4d bd 5e 37 fd 3d af 44 86 bd
       0.06482798 -0.05020684 0.12364076 -0.06556069
000040 b2 62 2a 3d 40 46 dd bc 39 10 60 3e 44 f5 c2 3d
       0.04159803 -0.027011037 0.21881188 0.09519437
000050 3a 5d 02 3e 1c d2 92 3d a4 bc d7 bc 85 22 ea 3d
       0.12730876 0.071689814 -0.026335068 0.11432365
000060 ba 05 df 3c 26 89 5f bd d6 bd 55 3d 9c 1a d5 3d
       0.02722441 -0.054574154 0.052182995 0.10405466
000070 0f c6 8f bd f1 ad 1a 3d aa d5 92 3d 9b f3 32 bd
       -0.070201986 0.03776354 0.071696594 -0.04368935
000080 f7 f8 53 bd 91 26 c4 bc 3b b4 9b bd 5a c9 19 3a
       -0.051751103 -0.023944171 -0.076027356 0.00058664905
000090 5d 15 55 3e 20 68 87 bd 95 ee 48 bd 75 08 ac bd
       0.2080893 -0.06611657 -0.049055655 -0.084000506
0000a0 fb 53 0e bd af 8e ab bc 00 52 a8 3c b0 f2 a5 3d
       -0.03474806 -0.02094206 0.020546913 0.081029296
0000b0 dd bf b7 bd e2 93 43 3e 55 ca e4 39 c4 e2 74 bc
       -0.08972142 0.19099382 0.00043638298 -0.014946643
0000c0 bc 82 8c 3d 41 82 a8 3d ed 86 ed 3d 22 83 73 bd
       0.06860873 0.08227969 0.11598001 -0.05945123
0000d0 8e e6 9e bd 08 5b 54 3d bc 31 84 bd dc 27 da bd
       -0.077588186 0.051844627 -0.064547986 -0.10652134
0000e0 8a 07 8b bd 0e 08 08 3e 3a d4 fe ba 40 c4 87 bd
       -0.06788547 0.13284323 -0.001944191 -0.066292286
0000f0 4a 8f 8d 3d e6 16 c3 3d af a0 0d 3e d3 ec 3b 3e
       0.06912096 0.09525852 0.13830827 0.1835206
000100 ac 02 9f bc 2b 7d 2b 3d 04 05 0d bd 00 a0 94 3d
       -0.019410454 0.041867416 -0.03442861 0.0725708
000110 94 ae 03 3e 62 a6 41 3d 4b ed 5d bd 2c 70 d5 3d
       0.12859565 0.047277816 -0.05418138 0.10421786
000120 5f 22 39 be 66 24 a0 bb 84 9e 3d bc 64 a8 69 bc
       -0.18079518 -0.0048871515 -0.011573438 -0.014261339
000130 92 6a 45 bd 29 e4 91 bd e9 6e 2d 3e e4 60 ad 3c
       -0.048197336 -0.07123596 0.1693684 0.021164365
000140 6a f4 a7 3d 53 59 49 3d 95 5f f2 3d 20 ab d9 3c
       0.08200915 0.04915745 0.11834637 0.026570857
000150 25 69 76 3e 23 20 f4 3d b5 d9 c4 bd aa 06 40 3d
       0.24063547 0.11920192 -0.09611837 0.046881355
000160 1a be bc 3d 37 10 07 3e 80 38 51 be 9b 63 10 bc
       0.092159465 0.13189779 -0.2043171 -0.00881281
000170 77 95 6d bd c5 59 16 3e 71 52 b2 3d 06 a9 b0 3d
       -0.05800387 0.14682682 0.08707131 0.08625989
000180 c8 2b 2d 3e 71 42 da 3b 1e 4e 05 3e bd 01 d5 bc
       0.16911232 0.0066607525 0.1301808 -0.026001805
000190 c7 c1 c1 b9 d5 85 29 bd 65 7f c4 bd d5 95 3d bd
       -0.00036956204 -0.041387398 -0.09594611 -0.04628547
0001a0 7a 78 f4 3c 29 c4 00 3d f6 e0 98 bd 6b 0f 8c bc
       0.029842604 0.031437073 -0.07464783 -0.017097196
0001b0 1a 46 96 3c 2e 58 ef bd c2 37 55 3d 25 2d 7c be
       0.018343974 -0.11686741 0.052055128 -0.24626596
0001c0 22 fe b8 3c 93 9d 98 bd 4e 04 36 bb b6 88 69 3d
       0.022582117 -0.0745193 -0.0027773562 0.057015143
0001d0 eb c3 3d 3e 02 d3 3c 3e 44 65 58 3d 08 8a d6 3d
       0.18531768 0.18439868 0.05283095 0.10475546
0001e0 16 6e 5b 3d fd 47 cf 3d 90 7c bd 3d bc 76 b5 bb
       0.053571783 0.101211525 0.09252274 -0.005537836
0001f0 a5 e5 98 bd 13 95 94 3d 70 05 0c 3e ac 0f 85 bd
       -0.07465676 0.07254996 0.13673949 -0.0649713
000200 8a 05 aa bd d1 cd 45 3e 62 2c 9e 3c 3d af db 3b
       -0.08301838 0.19316794 0.019308273 0.0067042396
000210 72 d4 25 be c9 3a ca 3d cd c4 cd bd 28 18 75 3d
       -0.16194323 0.09874494 -0.100473024 0.05983749
000220 7e 85 06 bd 44 70 19 bc d4 86 f0 3d 41 f7 47 bd
       -0.03284215 -0.009365145 0.117444664 -0.048819784
000230 a1 23 9a bd 54 4b 61 3e d5 c4 99 bd f4 9b 98 3d
       -0.07526327 0.22001392 -0.07508246 0.07451621
000240 70 1e d7 bc a7 04 4d bd f1 b8 8c 3d b9 32 0d 3e
       -0.02625963 -0.050053265 0.06871212 0.1378888
000250 9a 48 ad bd a5 cf 10 3e e5 0a 0b be 98 09 d7 3d
       -0.08461113 0.1414171 -0.13578375 0.10499877
000260 bd 5c 0f bd 08 d9 e8 3d 70 3c 52 3d 87 90 5b 3b
       -0.03500055 0.113695204 0.05132717 0.0033502893
000270 a3 85 d6 3d 72 f7 98 bc b3 b0 b8 bd 6d c5 f3 3c
       0.10474708 -0.018672679 -0.09018078 0.029757226
000280 9c 55 dd 3c c6 56 64 bd 69 a0 f5 3d 78 e1 16 bc
       0.02701836 -0.055746816 0.119934864 -0.009209029
000290 df b6 9d bd da 9c c0 3c 65 85 d3 3d 8e 13 0e bd
       -0.077008955 0.023512293 0.10328177 -0.034686618
0002a0 f2 a9 fe 3d 92 5e 18 be d2 40 5e bc d5 ce 82 bd
       0.12434758 -0.14879826 -0.013565259 -0.06387106
0002b0 c4 88 b6 3d 08 4e 14 3e aa cd 2a 3e 67 62 ee bc
       0.08912805 0.14482892 0.16680017 -0.029099656
0002c0 31 84 d8 bd b9 fb 26 3c fc 27 6e bd fe 36 08 3e
       -0.105720885 0.010191851 -0.0581436 0.13302228
0002d0 b3 6e 8c 3c 0e 10 43 3d a8 f1 d1 3d 9d 52 01 bd
       0.01714263 0.047622733 0.102511704 -0.031572927
0002e0 a7 95 0d be ee 81 23 bd bb a8 e9 3d 1e eb e7 3d
       -0.13826619 -0.039918832 0.11409136 0.11324142
0002f0 a0 01 7c 3c 89 d6 0b 3e d9 63 83 3e dd ba 2b 3e
       0.015381247 0.13656057 0.25662115 0.16770501
000300 10 e0 05 3e 37 0b 1f bd cd 18 a8 3d 10 66 8d bc
       0.13073754 -0.038829055 0.082078554 -0.017260581
000310 cd 1b 35 bd de ee 08 3c 6c 65 25 3b 4a 9c 48 3c
       -0.044215966 0.008357732 0.0025237454 0.0122442935
000320 6c 09 8a 3d f4 6e 10 bd 83 6a 4b bd 8f d3 c8 3d
       0.06740078 -0.035262063 -0.049662124 0.098059766
000330 ba a2 d9 3d 08 2a f1 ba fc f9 76 3c 66 1f ab bd
       0.10626741 -0.0018399367 0.015074249 -0.08355598
000340 d8 3e e1 3d c5 e2 9a bb a8 4f a7 3d c4 13 b0 3d
       0.109983146 -0.00472674 0.0816949 0.0859752
000350 bf 94 b0 bd f0 2b 63 3c ee 89 8d 3c 6a 9e 02 bd
       -0.08622121 0.013865456 0.017277684 -0.031889357
000360 38 ed b1 3d 1a db b4 bd ef d6 8e bc 51 b9 71 3d
       0.08687824 -0.08830853 -0.017436473 0.059014622
000370 d6 52 02 3e f8 17 7b 3d ad 7a 4e bb 96 f9 49 3d
       0.12726912 0.061302155 -0.0031506226 0.04931029
000380 25 26 60 39 66 36 37 3e 5b 1b 3c 3d 41 57 88 bd
       0.00021376515 0.17891845 0.045924526 -0.06657267
000390 1e 0d 45 3e 80 20 33 bc d2 89 80 bc 94 49 22 3d
       0.19243285 -0.010933042 -0.015690718 0.03962095
0003a0 29 7c c9 3d f1 d1 4a 3c 2d 8c 9f bc 02 8e 01 bd
       0.09838135 0.0123791555 -0.01947602 -0.03162957
0003b0 47 d6 fe 3d c4 7a b5 3c 91 f5 aa bd 39 73 d1 bd
       0.12443214 0.022153266 -0.08347619 -0.10227055
0003c0 c2 fb f9 3c c1 05 65 bd 21 64 30 3d 9a e7 bb 3d
       0.030515555 -0.05591369 0.04306424 0.09175034
0003d0 77 a4 b3 3d dc ed 6c 3d 8a 8c 63 bd b7 22 36 3d
       0.087716036 0.057844028 -0.05555395 0.0444667
0003e0 ed 3b 11 3d a4 b3 cb 3b 49 f3 88 3d 85 af a9 bd
       0.03545754 0.006216483 0.06687028 -0.08285431
0003f0 03 7f 74 3e 8e e0 b0 bc 5f 04 52 3d 24 3c 75 3d
       0.23876576 -0.021591451 0.0512737 0.059871808

lstm.weight_hh_l0 f4 [256, 64]
000000 79 26 25 3d 90 d4 ce 3c 3a f4 41 bc 0a d2 9b bd
       0.040319894 0.025247842 -0.011838013 -0.07608421
000010 d0 51 ca 3d 03 cc 86 bc 2d 71 16 3e c3 0f 0f 3d
       0.09878886 -0.016454702 0.1469161 0.03492714
000020 21 1e 07 bd 4e 59 f6 bd 1e 30 dd bd bc 79 37 3d
       -0.032987718 -0.12028752 -0.10800193 0.04479383
000030 b5 25 f7 3d d0 70 4b bc 05 f2 87 bd b4 f6 a2 3d
       0.12067739 -0.012417033 -0.066379584 0.07957211
000040 5b 45 27 bd 8d 9a 48 bc 65 b0 9a bd 47 56 10 be
       -0.040837627 -0.012243879 -0.07553176 -0.14095412
000050 f9 00 37 bd c9 6e 33 3c 30 d4 bd 3c 78 f5 4d 3d
       -0.044678662 0.010951706 0.023172468 0.050282925
000060 78 bc b3 bc e7 9a 4d bd df 99 c6 3c dd 9e 36 bb
       -0.021940455 -0.050196555 0.024243293 -0.0027865686
000070 c0 62 b5 bc 05 a0 8e 3d 14 70 9b bd 9f af 58 3d
       -0.022141814 0.06964115 -0.075897366 0.05290186
000080 c2 19 9b 3d 04 b2 6f 3d 96 4a 18 bd 17 e0 bf bd
       0.07573272 0.05851938 -0.037180506 -0.093689136
000090 50 f7 2c bd 6d d7 9c bd 29 2c 32 bd 78 e0 23 3d
       -0.042228043 -0.07658277 -0.043499146 0.040008992
0000a0 81 66 15 bd 8e c5 00 3e f4 14 b5 bc 9c 28 e5 39
       -0.03647471 0.12575361 -0.022104718 0.0004370854
0000b0 46 14 44 bd 39 da 7d 3d 09 4e 03 3e a2 bf 85 3d
       -0.047870897 0.06197569 0.12822737 0.06530692
0000c0 11 4b 65 3d f5 16 9a bd 3b d1 40 bd ef 4f 8f bd
       0.055979792 -0.0752391 -0.047074538 -0.06997668
0000d0 bd 81 d0 bd 86 40 e7 3d a1 11 59 bd 44 67 84 3b
       -0.101809956 0.11291604 -0.052995328 0.0040406305
0000e0 21 3b c9 bd 5a 30 93 bd fd 43 05 3e b2 7d 37 3d
       -0.09825731 -0.07186957 0.13014217 0.044797607
0000f0 df 05 fc bc 9b c8 4b 3d 93 05 cc 3d a1 de 11 3b
       -0.030764518 0.04975186 0.09962001 0.0022257941
000100 02 c0 c3 bd 55 03 3a 3c cb f2 d4 bd a8 fe d0 bd
       -0.09558107 0.0113533335 -0.103978716 -0.10204822
000110 13 35 b6 3d c2 2e a4 bd 1a d7 7e bd a7 03 69 3d
       0.08896842 -0.08016731 -0.062216856 0.05688825
000120 39 11 48 3e 02 19 ee bd 10 00 a1 bd 0b ee 5a bd
       0.1953782 -0.116258636 -0.0786134 -0.05344967
000130 75 ea ca 3d 00 88 a5 3d fa c7 a5 3d 29 4b 8e 3d
       0.099080004 0.080825806 0.08094783 0.069479294
000140 86 61 24 bd c4 48 55 3d 48 f3 86 3c c7 96 ad 3c
       -0.040132068 0.052071348 0.016473427 0.02119006
000150 6f ff 47 bd 1d 8f 35 3d a0 eb 75 3d 9d c2 fc 3a
       -0.048827585 0.044325937 0.060039163 0.0019284073
000160 06 f8 9c 3d 80 68 e4 bc ba 83 2d 3d d0 2c e0 3d
       0.07664494 -0.02788186 0.042361952 0.10946047
000170 05 f7 9e 3d 6e 07 05 bd 51 e3 21 bd 11 11 f6 3c
       0.07761959 -0.03247779 -0.039523426 0.030037435
000180 46 90 9c 3b 6f 5f ac 3b b1 83 eb 3d 28 71 6f 3d
       0.004777941 0.0052604 0.114997275 0.058457524
000190 df fc 93 bd 73 7a b7 bd a7 40 ed 3d 26 e1 0a bc
       -0.07225966 -0.08958902 0.11584597 -0.008476531
0001a0 10 a1 3b bd 8f ea c1 bd 16 2b e9 3d 2f 9a 85 3d
       -0.045807898 -0.094685666 0.11385171 0.06523549
0001b0 2a 8a c5 bd 12 c0 db bd c2 e5 f3 3d a8 42 38 3d
       -0.09645493 -0.10729994 0.11909057 0.044985443
0001c0 e5 f1 53 bb b0 c7 c8 bd 17 0a a1 3d 9c ad ad bd
       -0.0032340225 -0.09803712 0.078632526 -0.08480379
0001d0 1d 0e 96 3d e8 61 d8 bd 9c 33 de bd 06 95 f5 bd
       0.07326911 -0.10565549 -0.108496875 -0.119913146
0001e0 59 92 db 3d 11 bd dd 3d 92 66 ec bd cc 5a c8 3d
       0.10721273 0.10827077 -0.11543001 0.09782943
0001f0 d1 17 8a bd 31 d3 de bd 50 89 2a 3d 4b 14 cf 3d
       -0.06742824 -0.10880125 0.041634858 0.101112925
000200 38 ed c1 3d 65 bb af bc 1e ec 13 3e 85 b2 9b bd
       0.09469074 -0.021451661 0.1444554 -0.07602409
000210 34 f5 ab 3d 6b c2 83 bd fd 7e 4d 3d 11 5a 95 3d
       0.08396378 -0.06433567 0.050169934 0.072925694
000220 4b 8a 9e bd a0 8d ca 3c 79 c3 e2 bb 1f 75 8c 3d
       -0.07741221 0.024725735 -0.006920275 0.068582766
000230 42 86 43 3c df 23 23 3d 80 bd c2 3d cc 80 b7 bc
       0.011933865 0.03982913 0.095088005 -0.022400282
000240 7d a7 c1 bd a6 29 e6 3d 91 cb 63 bd 1f 6e af b9
       -0.09455774 0.112384126 -0.055614058 -0.00033460648
000250 47 fe f1 3d f9 bf 5d 3c 29 46 a0 3d 46 eb b2 3d
       0.11816078 0.013534539 0.07825882 0.08736281
000260 2f 04 64 3d 1e 99 29 3c 59 38 a3 bc 21 51 18 3e
       0.055668052 0.010351447 -0.01992433 0.14874698
000270 d0 25 75 3d 59 03 d9 bd 64 7e ab bc 7e 62 59 3d
       0.059850514 -0.10596342 -0.020934291 0.053072445
000280 d3 98 8c 3d be 0b 7a 3d 02 15 bb 3b 35 57 49 bd
       0.068650864 0.061046354 0.0057092914 -0.049155433
000290 d7 dd 4c 3c 26 f2 13 be 56 0a 31 3d f7 4b a4 3d
       0.012504063 -0.14447841 0.043222748 0.08022302
0002a0 39 05 ce bd c7 08 a9 bd 19 8c fc 3d 4c a6 06 be
       -0.1005959 -0.08253627 0.12331409 -0.13149375
0002b0 0e e5 e4 3d 89 f6 e8 bd dd a9 84 bd 47 fc d0 bc
       0.11176501 -0.11375148 -0.06477711 -0.02551092
0002c0 e5 5c 2b 3e 6c df 55 bd a6 ad 20 3e 00 8f 19 3d
       0.16734655 -0.052215025 0.15691242 0.03748989
0002d0 d8 b4 00 3e f8 ad a6 3d 6a 3b c6 3d c2 81 07 3e
       0.12568986 0.08138651 0.09679301 0.13233092
0002e0 30 9c 0a bd ff b8 bb bd 61 29 96 3d b8 29 04 3e
       -0.03384036 -0.091661446 0.07332111 0.1290654
0002f0 75 3a 89 bd 86 c5 cf bd b2 86 9c bd 2c f2 40 be
       -0.06700603 -0.101450965 -0.076428786 -0.18842381
000300 08 d7 7d 3d 72 c2 40 bd e7 ca 16 3c 9f 2f 18 bd
       0.061972648 -0.047060438 0.009203649 -0.03715479
000310 49 6d 93 3d af ad bc bd 58 92 2a 3e 14 05 41 bd
       0.07198579 -0.09212815 0.16657388 -0.047123984
000320 aa fd ca 3d cc 5e 16 3b ab a2 f0 bc 4b 6d e5 3d
       0.09911664 0.0022944687 -0.029374441 0.112024866
000330 44 63 cf 3c 1e c4 ce 3b 15 ea 1c be d7 49 44 3d
       0.025315888 0.00631 -0.1532367 0.04792198
000340 8e 41 a0 3d cb 9a 92 3b 54 91 e2 3b e7 85 7b 3d
       0.078250036 0.004474019 0.006914297 0.061406996
000350 cb af 0b 3e cb 35 08 3e 7a e6 78 bd c7 ca 85 bc
       0.13641278 0.1330177 -0.060766675 -0.016332043
000360 7b f2 d9 bd de 93 01 be 6f 4d 6e bd 05 3c 2d 3d
       -0.106419526 -0.12654063 -0.058179315 0.042293567
000370 01 7c e3 bd 90 8e 0f be c5 d0 93 3d 54 f3 7e 3c
       -0.11107636 -0.14019227 0.07217554 0.015560944
000380 c5 4d f2 bd 06 5d e7 3d 41 b9 ce bd df 17 86 3d
       -0.118312396 0.1129704 -0.10093928 0.06547522
000390 76 e3 7c 3d a9 d3 fc bc 49 30 a4 3d 16 3d c9 bd
       0.06174036 -0.030862646 0.08017022 -0.09826104
0003a0 d2 cb d1 bd 0a bd 10 3e e1 bf df 3b f9 73 a6 bd
       -0.10243954 0.14134613 0.0068282937 -0.08127589
0003b0 28 11 ea 3c c6 22 b5 bb 27 ec 05 3e dd 71 0f 3e
       0.028572634 -0.005527827 0.13078366 0.14008279
0003c0 b4 be f6 3d 18 81 dc bb a8 fb 5f 3d 2f bb bb 3c
       0.120480925 -0.0067292564 0.054683357 0.022916405
0003d0 ee 1a 97 bc 33 ad 7d bb ec 62 c0 3d df b6 e8 3d
       -0.018445458 -0.003870797 0.09393868 0.11363005
0003e0 d4 b1 44 bc c9 ab d7 3c 39 d8 3c 3d f7 13 a2 3d
       -0.012005288 0.02632703 0.046104643 0.07913964
0003f0 21 1e 92 3d 5d 2e 01 be d1 d7 37 3d 9e 4e c3 bd
       0.07134653 -0.12615342 0.044883553 -0.095364794

lstm.bias_ih_l0 f4 [256]
000000 07 9d 78 3d 33 98 20 bd 35 9b 8d 3d c8 be 91 3d
       0.060696628 -0.03920765 0.06914369 0.07116467
000010 c1 1f 02 3e 25 7f b9 3b d8 3c 93 3b a8 69 c6 bc
       0.12707426 0.0056609088 0.004493337 -0.024220303
000020 be ec 5d bd bd c1 d0 bb 9e d3 27 bd 30 68 7d bd
       -0.054180853 -0.0063707517 -0.0409733 -0.06186694
000030 58 8d cb bd 7d 39 ff bd d6 41 b9 3d 9a ad 55 bd
       -0.099390686 -0.12462137 0.0904576 -0.052167512
000040 ec a6 18 3e 50 7e 1e bd c6 71 7a 3d b2 b7 26 bd
       0.14907426 -0.03869468 0.06114366 -0.04070253
000050 79 39 49 3e a2 9b 1a 3d 4b bf 4e 3d be 95 97 3d
       0.1965083 0.03774608 0.0504754 0.07401608
000060 e7 86 c7 3d 98 79 42 bc a7 69 a8 3d d7 b8 38 bd
       0.097425275 -0.0118698105 0.082232766 -0.045098152
000070 77 b1 ad 3d 97 73 27 3e e7 a6 0e 3e 1f 58 4e bc
       0.08481114 0.16352688 0.13930856 -0.012594252
000080 a5 d6 f8 3b 3c 2e f2 3d 28 3d a1 bd a7 4d 92 3d
       0.007593947 0.11825225 -0.07872993 0.07143717
000090 b3 99 ad 3c bd bd 2e 3e bc 95 5d 3d 5f a1 f8 3d
       0.021191454 0.17064567 0.054097876 0.12140154
0000a0 f9 76 d6 3c 58 14 1d 3e f8 9c c3 bd 46 e7 51 bd
       0.026179777 0.15339792 -0.09551424 -0.05124595
0000b0 a1 19 91 bc e7 f2 ee bd c3 93 6a bc 29 cb 88 bd
       -0.017712416 -0.11667424 -0.014317456 -0.06679375
0000c0 f4 9a 9e 3d 3f fe 21 3e 67 8a 8e 3b 37 4e bd 3d
       0.07744399 0.15819643 0.004349995 0.09243434
0000d0 fa 6a 91 3d e4 aa 4a 3d 42 ca 39 3c 90 24 34 bd
       0.07100482 0.04947938 0.011339726 -0.04398018
0000e0 2f 66 eb bd 8f 74 0b 3e a0 51 58 bd c9 17 00 3e
       -0.11494099 0.13618682 -0.05281222 0.12509073
0000f0 a0 06 1f 3d c3 62 72 bd 50 56 2a 3a fb 3e 5d 3e
       0.038824677 -0.059176218 0.0006497847 0.21606056
000100 74 3f 91 3c b0 d6 c3 3d 49 3f a5 bc 1c 5f 14 bd
       0.017730452 0.09562433 -0.020171778 -0.036223516
000110 2d 74 b3 bd 2d bc 71 3d a9 e5 72 bd 8e ca a6 3b
       -0.08762393 0.05901735 -0.059301052 0.0050900644
000120 d7 45 29 3e 82 90 f8 bc 1c b0 fb 3d 1f 76 15 3e
       0.16530548 -0.030342344 0.122894496 0.14595841
000130 fc a7 5f bd 60 76 62 3d dc a2 ff bc 00 25 84 3d
       -0.05460356 0.055288672 -0.031205587 0.0645237
000140 79 13 39 bd fb 8b 8a 3d 2a 64 8f 3d cb 12 da 3d
       -0.045184586 0.067649804 0.07001527 0.10648116
000150 fc b0 be bb 5a c7 9b 3d 73 25 e0 3d 88 47 e1 bc
       -0.005819438 0.07606383 0.10944643 -0.02749993
000160 3d cd 00 3e fd 94 fd ba 88 03 1a bd 44 a7 7e 3d
       0.12578292 -0.001934677 -0.037601024 0.062171236
000170 83 a2 53 3d f4 f8 7e bd 9b 7f c7 bc 13 eb d5 bc
       0.051668655 -0.06224914 -0.02435284 -0.026113069
000180 2c 45 d2 3d f5 62 af ba 7e d7 e6 bd 2b 42 1f 3d
       0.102671 -0.0013380932 -0.112715706 0.038881462
000190 92 ca e3 3c e0 56 38 3d 9e cf 12 3e 48 44 d4 bd
       0.027806554 0.045004725 0.14337012 -0.10364586
0001a0 80 91 10 3d 66 52 2b bd 7d 4e 08 bd 8c 16 83 bd
       0.03529501 -0.04182663 -0.033277977 -0.06400785
0001b0 32 ee ee bc e1 5e e1 bd 51 28 d0 bd e0 b0 d5 3d
       -0.029166315 -0.11004425 -0.1016394 0.10434127
0001c0 f7 7a 87 3d 5e a6 70 bc 95 46 3c bd 94 52 08 bd
       0.066152506 -0.0146881025 -0.04596575 -0.033281878
0001d0 1c 6d 18 3d 77 98 4f bd 66 5f 40 3d f1 05 fb 3c
       0.03721343 -0.05068251 0.04696598 0.030642482
0001e0 44 d6 06 3d 09 eb 23 bd 27 d3 2a bd 12 ab 9e 3d
       0.032919183 -0.04001907 -0.041705277 0.07747473
0001f0 9f 44 c1 3d f5 e4 86 bd 90 ea cc 3d 9a 89 1d 3d
       0.094369166 -0.06586639 0.10005677 0.038461305
000200 2b 33 2b 3e 9c da 2f bd 61 ac 0e 3e d2 e0 98 3d
       0.16718738 -0.04293309 0.13932945 0.07464756
000210 33 ea f8 3d a7 ff d5 3c 5e b6 d4 3d 30 99 07 bd
       0.12154045 0.026122881 0.10386346 -0.033105075
000220 c2 04 0f 3d f2 2e 25 bd eb 19 80 3d 87 c9 23 3e
       0.034916647 -0.040327974 0.062549435 0.15994845
000230 a6 64 0b 3e fc d5 26 bd f1 b7 8f bd f3 94 98 3d
       0.13612613 -0.040731415 -0.07017506 0.07450285
000240 d8 01 a1 bc cf 3b 8e bd 20 1a ad 3c ce b2 ad bd
       -0.0196542 -0.06945001 0.021130621 -0.0848137
000250 5b 57 8c bd 04 b0 cd 3d 2b 29 14 be bc 7c 7a bd
       -0.06852599 0.10043338 -0.1446883 -0.061154112
000260 99 86 06 3d c6 16 28 bd 7f 08 27 3d b3 8d e7 3b
       0.032843206 -0.041037343 0.040779587 0.0070664524
000270 59 c8 03 bd aa e2 48 bd a5 29 98 3d 7a 33 0f 3c
       -0.03217349 -0.04904429 0.07429818 0.0087403
000280 18 fd 31 bd fb 0c d9 3d 50 6e 7f bd b1 35 84 bd
       -0.04345426 0.10598179 -0.06236106 -0.06455553
000290 86 a8 70 bc 9d 58 c6 3d d9 b6 8a bd f0 34 dd bc
       -0.014688617 0.096848704 -0.06773157 -0.027002782
0002a0 be a7 13 be 77 97 bb 3d 2f fe d8 3d 31 e3 06 be
       -0.14419457 0.09159749 0.10595357 -0.13172604
0002b0 c7 27 10 be e6 4f a2 3c a9 ba fa 3d 6b 45 87 3d
       -0.14077674 0.01981349 0.12242634 0.06605037
0002c0 d1 2f 8e 3d 54 59 f9 bd 4e 79 90 3d 15 ef 0c 3e
       0.06942714 -0.12175241 0.07054387 0.13763078
0002d0 f9 32 04 be 1a 09 a5 39 1f 11 64 bc 68 e1 24 3e
       -0.1291007 0.00031478034 -0.013920098 0.1610161
0002e0 1b f3 b6 bd be 13 d5 bd 06 20 b6 bd d5 04 06 3e
       -0.089330874 -0.10404156 -0.08892827 0.13087781
0002f0 47 be 4b 3c ee 84 00 be e6 6a b4 bd 84 1e 4c 3d
       0.012435502 -0.12550709 -0.08809452 0.04983379
000300 02 a0 35 bd 75 1b 9f bd 31 db f0 bc a1 c7 46 ba
       -0.04434205 -0.07768909 -0.029401394 -0.00075828476
000310 24 0c 2e bd d3 4c 3b bd ae 55 b8 3d f1 94 29 3d
       -0.042492047 -0.045727562 0.09000717 0.041401807
000320 b9 ad 09 3e 35 69 a9 bd 6b 91 6a bc 8c bc 2e 3c
       0.13445176 -0.0827202 -0.014316897 0.01066507
000330 b7 ba 45 bd f4 7e ce 3c 08 5f f4 bc 72 0d 2d bd
       -0.04827377 0.02520702 -0.02983047 -0.04224915
000340 a0 e3 7d bd f9 3c df bc 18 5a 34 3c f6 14 02 bd
       -0.06198466 -0.027250754 0.011007808 -0.03175827
000350 1d b0 37 3d 26 3d 85 bd 9c 53 2a 3d 25 fd 9f 3d
       0.04484569 -0.06505804 0.041583642 0.07811955
000360 92 af b5 bb ec 15 99 bc e6 de d0 3c fc 5a 33 bd
       -0.0055446113 -0.018687211 0.025496911 -0.04378794
000370 00 e8 0f bd 10 6b b6 3d 6c 59 50 bb 4d 7c 55 3d
       -0.03513336 0.08907139 -0.003179158 0.052120496
000380 73 e6 ef 3c cf e7 31 3c 37 a0 ae bd ea 33 19 3d
       0.029284691 0.01085849 -0.08526652 0.037403025
000390 f9 1d f4 3d 2b c1 31 3e 60 4e 42 3e 36 f1 a4 bc
       0.11919779 0.17358844 0.1897521 -0.02013455
0003a0 2d de db 3c 5d f9 0b 3e 52 97 23 bb 73 33 53 3d
       0.02683934 0.13669343 -0.002496202 0.051562738
0003b0 ac d6 b4 3c b2 d4 b1 3d dd 04 86 bd bb 54 60 3d
       0.02207502 0.086831465 -0.06543896 0.054768305
0003c0 3c db e4 bd 75 59 c6 3c 59 1b 95 3d 06 02 f4 3c
       -0.11174628 0.024212578 0.07280607 0.029786121
0003d0 98 3c 00 3e a0 87 c7 bd 75 dc 52 3d a8 f1 bb 3c
       0.12523115 -0.09742665 0.051479775 0.02294238
0003e0 3c c1 e7 3d 3c 8c 47 3e ac 58 0f 3e cb fd 89 bd
       0.113161534 0.19487089 0.1399867 -0.0673786
0003f0 3e c0 05 3e a3 29 9e bd 63 98 f4 bb ea 13 86 3e
       0.13061616 -0.07722785 -0.007464455 0.26187068

lstm.bias_hh_l0 f4 [256]
000000 bb 7c 08 3d 33 95 86 3d 51 78 0a 3e 95 1c 23 3d
       0.033322077 0.06571426 0.1352246 0.03982218
000010 19 58 89 3d 09 c2 ab 3c 95 f5 1f 3e 88 14 a9 3d
       0.067062564 0.020966547 0.15621026 0.08255869
000020 0e 79 48 3d c6 a7 58 bd cc 9f 6e 3d 01 67 ea 3d
       0.04894357 -0.052894376 0.058257863 0.11445428
000030 fe af e3 3c 5a 95 29 3d 99 49 88 3d 92 01 7b bd
       0.02779388 0.0414022 0.06654663 -0.061280794
000040 4c a2 a4 bc db 53 f6 bb 54 e2 ce bd f6 3b 0a 3d
       -0.02009692 -0.0075173206 -0.101017624 0.03374859
000050 0b c5 3c 3d 8c fd c5 bd 2b c6 4b 3d 5e 64 75 3d
       0.046086352 -0.09667501 0.049749535 0.05991017
000060 73 8c ed 3d 55 26 03 3d 7e 40 02 3c 6c fc e2 3b
       0.11599054 0.03201898 0.007949946 0.0069270637
000070 89 65 98 bd c9 b3 3b 3d 09 b4 ae 3d 75 dd 6f 3c
       -0.07441241 0.045825753 0.08530433 0.014640202
000080 12 a8 38 3d f9 e0 e7 3d 96 d4 d5 3d ee de 15 3e
       0.04508216 0.11322207 0.10440938 0.14635822
000090 d3 5c c3 3d ad 2e 00 3e 06 e3 ca 3d 8f 50 c7 bd
       0.09539189 0.12517805 0.099065825 -0.09732162
0000a0 a1 6a 62 3d 94 53 d2 3d 34 c3 0b 3d bd 22 b3 3d
       0.05527747 0.102698475 0.034121707 0.0874686
0000b0 a1 37 b0 bd ea bf 4f 3b fa bc f5 3d 6f 67 a6 bd
       -0.0860436 0.0031700083 0.11998935 -0.08125197
0000c0 58 28 9b bc 32 a8 dc 3d 20 73 da bd e1 09 ef bc
       -0.018940136 0.10774268 -0.106664896 -0.029179515
0000d0 03 88 39 bd c5 4b a9 3d ca 4b c3 bc 2f 31 2a 3d
       -0.045295727 0.08266405 -0.02383985 0.04155081
0000e0 23 27 c6 3d 98 53 eb 3d cb 5c 30 bc bf 21 b9 3d
       0.096754335 0.114905536 -0.010764311 0.0903964
0000f0 f8 7a 20 bd d1 8c e5 3d 30 13 84 3c b7 b4 97 3e
       -0.039179772 0.11208499 0.01612243 0.29630062
000100 c6 10 7c bc 44 16 5d 3d fd a1 0d 3e 0a d3 04 bc
       -0.0153848585 0.053976312 0.13831325 -0.008106956
000110 ac 25 88 3c e4 7b ce bc b9 45 c8 3d 88 57 cd bc
       0.016619526 -0.02520556 0.097789235 -0.025066152
000120 23 26 0b 3e 13 42 66 bd 74 9d 00 bd b0 71 26 3d
       0.13588767 -0.056215357 -0.03140016 0.040635765
000130 82 10 00 3e 4c 63 65 3d 47 f7 44 3c cc ab 73 3d
       0.12506297 0.0560029 0.012021846 0.05949001
000140 b3 f0 a7 bd 0a 38 c7 3c 9f 04 e4 3d 5e e5 6c bc
       -0.082002066 0.024318714 0.11133694 -0.014458982
000150 4b af eb bc 37 08 67 bd 7b 4d f2 3d 1a c2 b5 3c
       -0.02877011 -0.05640432 0.118311845 0.022187281
000160 38 7f 8d 3d 63 d3 08 bd 1e 49 c5 3d 53 80 89 3c
       0.06909031 -0.03340472 0.096330866 0.016784823
000170 62 59 10 3e 20 58 06 3e 69 d4 a5 bd 35 be dc 3d
       0.14096597 0.13119555 -0.08097155 0.107784666
000180 12 8c 80 bd 61 43 0d bd 00 41 cf 3c 65 c1 a5 bd
       -0.06276716 -0.034488086 0.02529955 -0.08093528
000190 a9 88 3c bc 14 23 26 bd 9b 93 27 3c 36 e9 96 3c
       -0.011507192 -0.040560797 0.010228063 0.01842175
0001a0 e8 cb e0 3a ee 9c 8f 3d e9 6a 45 bc 6d ac 05 3d
       0.0017150613 0.07012354 -0.012049415 0.03263514
0001b0 3b fd 94 ba 0f 0e 0c bd 3d 09 cc bd fa 31 ac 3d
       -0.0011366972 -0.034193095 -0.099626996 0.0840797
0001c0 5c e6 eb bd 8f 68 3e 3d 14 d8 92 3d 7b a6 00 3e
       -0.11518547 0.046486434 0.0717012 0.12563507
0001d0 50 b4 72 bd 0d 3d d6 3d 00 a4 91 bd c0 b7 31 bd
       -0.05925399 0.10460863 -0.07111359 -0.04338813
0001e0 1c 06 a2 3c 20 e8 db bc 19 7e 75 bd 9b b4 6f 3d
       0.019778304 -0.026844084 -0.05993471 0.05852185
0001f0 fd 79 cf 3d b9 3b 9d 3d f6 03 a2 3d 7b 9b ec 3d
       0.10130689 0.07677407 0.07910912 0.11553093
000200 33 21 16 3e e8 e2 36 bd 9a 39 07 3e d4 c0 69 3d
       0.14661102 -0.04464999 0.13205567 0.05706866
000210 3d 1d e0 3d ca 78 c1 bd 50 9a 45 3d ae 94 26 bd
       0.10943077 -0.09446867 0.048242867 -0.040669136
000220 df ee f6 3c 6b f7 df bd 0b 90 58 3c 8f 6e 38 3c
       0.0301432 -0.10935863 0.013217936 0.011256828
000230 af 47 d7 bb fb 17 07 3e 90 74 04 be d6 8d 9b 3c
       -0.0065698246 0.13192742 -0.1293509 0.018988531
000240 01 db ab 3d d0 ab b9 bb 4a f4 a4 3d a9 ae 11 3b
       0.08391381 -0.0056662336 0.08054407 0.002222935
000250 1b ab cc 3d 99 cd 70 3d f4 c3 ea bd be cd be bd
       0.09993573 0.058789823 -0.11463156 -0.09316586
000260 a7 10 b0 bd e7 5b c3 bd 9a 98 ec bd e8 b1 52 3d
       -0.08596926 -0.09539013 -0.11552544 0.051439196
000270 a8 01 05 be b3 a3 ed bd 4c 9b 85 bb f7 5e 13 be
       -0.12988913 -0.11603489 -0.0040773507 -0.14391695
000280 b4 20 d7 bd 41 ca c9 bb 44 fe bb 3c a3 cb a3 3c
       -0.105042845 -0.0061581437 0.022948392 0.019994562
000290 36 dc b1 3d 02 14 23 3c 91 ea c8 bd c5 06 e1 bd
       0.0868458 0.009953501 -0.09810365 -0.10987619
0002a0 fa 8c f5 bd c3 96 e4 3d a6 c5 10 3e 7f 7c 5a 3b
       -0.1198978 0.11161568 0.14137897 0.0033338366
0002b0 dc 33 e1 bb 58 21 5d 3d 67 a5 c7 3d e2 a2 b7 3d
       -0.006872637 0.053986877 0.09748345 0.08966614
0002c0 77 7f 6b 3d 32 39 be 3c e8 d2 57 bb 30 c1 35 bc
       0.057494607 0.023220632 -0.0032932106 -0.011093423
0002d0 aa fe 46 3d 3f 55 fa 3b 4a b1 b3 3d 78 49 20 3e
       0.04858271 0.0076395567 0.087740496 0.15653026
0002e0 5f 88 8a 3d cb 22 04 3e 92 dd db 3d 68 4e 3d 3c
       0.06764292 0.12903897 0.107356206 0.011554338
0002f0 c6 3e 8d bd 4d d9 8f 3c 5a 0a b9 3d 53 94 f7 bd
       -0.06896739 0.017559672 0.090351775 -0.120888375
000300 cd c8 6a 3d 2a c9 84 3d cc 02 14 bd 0c d5 74 bc
       0.057320405 0.064836815 -0.03613548 -0.014943372
000310 0e 5b be bc ac cd 06 3e c0 09 89 3d e3 de 5d bd
       -0.023236778 0.13164395 0.06691313 -0.05416764
000320 65 c5 b8 3d 2c 4b 49 bd ad fb d4 bd ab 8e 05 3e
       0.09022025 -0.049143955 -0.10399566 0.13042705
000330 a4 4a a4 3c a3 6f de bb d0 5c d1 3d b1 d6 69 bc
       0.020055123 -0.0067882105 0.10222781 -0.014272378
000340 70 ab c5 3c 2c fb 97 39 fc 7e 90 3d 93 c8 50 3c
       0.0241296 0.00028988102 0.0705547 0.012743133
000350 0f d9 9d 3d b0 78 9a bd 94 95 14 bd 98 1c 91 bd
       0.07707416 -0.075425506 -0.03627546 -0.07085532
000360 1e 86 1f 3e 1e a4 0d 3e 6b 7e c0 3d 70 83 8c 3d
       0.15578505 0.13832137 0.09399112 0.06861007
000370 04 c0 1e bd ce 5b 8e 3d b2 44 8e 3d e4 5a f6 3d
       -0.03875734 0.06951104 0.06946696 0.12029055
000380 9e 11 97 bd 30 98 8e bd f2 a5 75 bd fd 56 04 3e
       -0.07376407 -0.06962621 -0.05997271 0.12923808
000390 ed f8 92 b9 2f 6c 20 3e b6 18 65 3d 56 67 47 3a
       -0.00028032754 0.15666269 0.05593177 0.0007606646
0003a0 8a 78 3f 3d d9 3a 22 bc f2 16 f9 3d 69 db e1 3d
       0.046745814 -0.009901726 0.121625796 0.11028177
0003b0 ea bc b5 bd 71 1f 4b bd b1 84 9e 3d 38 14 e1 3d
       -0.08873923 -0.04959053 0.077401526 0.109901845
0003c0 d4 3e 8d 3a 1b 61 1f 3e 60 66 ee 3c c7 dd d4 bd
       0.001077617 0.15564387 0.02910155 -0.10393863
0003d0 a3 5b 03 bd 3c 64 a3 3d 3f cb 01 bd 3a 0c 82 bd
       -0.032069813 0.079781026 -0.03168797 -0.06349988
0003e0 36 a6 03 bd c0 56 48 3c f4 d6 a5 3d 30 84 61 3d
       -0.032140933 0.012227714 0.0809764 0.055057704
0003f0 8b b1 51 bd d5 46 0e 3d 6c bc 0c 3e 04 0b 92 3e
       -0.05119471 0.03473552 0.13743752 0.2852403

head.0.weight f4 [32, 64]
000000 f6 4e 10 3d c4 6d bf 3b 60 63 19 bd 9c a6 6a bd
       0.035231553 0.0058419425 -0.037448287 -0.057287797
000010 55 e7 94 3d 26 05 29 3d a0 24 2b 3e 30 4d 61 39
       0.072706856 0.041264676 0.1671319 0.00021486427
000020 8e 72 08 3e 85 97 2f 3d 7f 19 98 3c 95 cb be bd
       0.13324949 0.04286911 0.018566845 -0.09316174
000030 de a2 c9 bd 87 bb 82 3d 88 1b 0c be b0 f4 98 3d
       -0.098455176 0.06383424 -0.13682377 0.074685454
000040 a2 3e e3 bb 06 52 0e bb 5e 13 d0 3d 14 40 1f be
       -0.0069349566 -0.002171637 0.10159944 -0.15551788
000050 97 a1 19 3e 87 f9 2b 3d 03 1c 8f 3d 13 db 07 3e
       0.15003048 0.041986015 0.06987765 0.13267164
000060 71 0f 61 3e d7 d6 53 bd 28 e2 c2 bd cb 35 a7 3d
       0.21978547 -0.05171856 -0.09515792 0.08164557
000070 46 3d 10 be 35 fb de bd 3f e3 7a bc 72 5a dc 3d
       -0.14085874 -0.10887758 -0.015312969 0.107594386
000080 9e e6 c7 3b 8a 0a 52 bd a9 e0 4e 3d d8 7f ad 3c
       0.0061004898 -0.051279582 0.05050722 0.021179125
000090 07 8b 67 3c 2b f0 18 3d eb 8a ae 3c 45 07 22 3d
       0.014132268 0.037338417 0.021306476 0.039557714
0000a0 86 c1 1d be d2 7a 8f 3d ae 80 b1 3d da 9e ad bd
       -0.15405855 0.07005848 0.08667122 -0.08477564
0000b0 1b 9f de 3d 39 2e be 3d 34 31 a8 bb 91 d4 eb 3d
       0.10870191 0.0928616 -0.0051328186 0.11515153
0000c0 cc 03 13 3e 9f f5 8b bd e9 c9 93 bd 5d f8 a2 bd
       0.14356917 -0.06833958 -0.07216246 -0.07957528
0000d0 b7 1c 80 3d b4 43 0b be 91 d1 c2 3d 61 80 0b 3d
       0.06255477 -0.13600045 0.09512628 0.03405798
0000e0 ec 77 4b bd 1b 14 23 3b 55 16 75 bd 20 a6 c7 bb
       -0.049674913 0.002488381 -0.05983575 -0.0060928017
0000f0 78 90 1b be 27 65 d7 3d 8b 95 93 3d f1 e5 ca bd
       -0.15191829 0.1051734 0.072062574 -0.09907139
000100 73 6a 61 bd 9b 48 e7 3d 3b ae e5 bd 91 ec 82 3d
       -0.05503316 0.11293145 -0.112148724 0.06392778
000110 0a 75 6c 3d 8b c4 1f 3d b2 ac 37 be f0 69 c3 bd
       0.057728805 0.039005797 -0.17936972 -0.0954169
000120 7e c7 81 bc 7e 36 9f 3d 84 0b c4 3d 3d 28 68 3e
       -0.015842196 0.077740654 0.09572509 0.226716
000130 9b ed 45 3d da f8 19 3c a2 0a d4 bd 78 a9 ef bb
       0.0483223 0.00939771 -0.103535905 -0.0073139034
000140 bd ec 4d bc 52 27 b1 bd 0b 34 f8 3b 94 c5 81 bd
       -0.01256865 -0.08650078 0.0075745634 -0.06336513
000150 6c 88 04 bd d5 37 0b bb 5a 22 d8 bd f7 d5 26 be
       -0.032356665 -0.0021242995 -0.10553427 -0.16292559
000160 56 50 36 be 2b e2 ec 3d cf 19 db bc d2 22 f7 3c
       -0.17804083 0.115665756 -0.026745705 0.03016797
000170 58 8b 36 bd 37 80 a9 3c a4 1b 93 bd d4 4f 35 3d
       -0.044566482 0.02069102 -0.071830064 0.044265583
000180 7a 9a cf 3d 2c e1 1a 3c e5 b8 0d 3d 6a 68 c3 bd
       0.10136886 0.009453099 0.034600157 -0.095414
000190 89 78 89 bd ce 60 ef bc f4 38 28 3e b7 7c 46 bd
       -0.067124434 -0.029220965 0.16427976 -0.04845878
0001a0 40 05 1e 3d db ab fa ba 62 80 90 3d 86 47 a8 3d
       0.038579226 -0.0019124703 0.07055737 0.08216767
0001b0 31 bd 2b be e9 99 e3 bc a9 55 0d 3a a0 09 8e b7
       -0.1677139 -0.027783351 0.00053914875 -1.6932201e-05
0001c0 b5 fd 4e bd 4d 26 f5 3d bd fa cd 3c 34 ef a4 3d
       -0.050534923 0.11970196 0.025143975 0.08053437
0001d0 18 d7 fe bd 54 64 9f bd c4 71 79 3d b4 f8 fd bc
       -0.124433696 -0.07782808 0.06089951 -0.03100238
0001e0 76 2a c9 bd 09 d2 aa 3d 3a 1e 9b 3d 27 57 73 3d
       -0.09822552 0.08340842 0.07574125 0.059409287
0001f0 fd fe 42 bd fc 02 97 3d b6 d6 33 bd 41 c9 2a 3e
       -0.047606457 0.07373616 -0.043905936 0.16678335
000200 8b 64 d3 3d 97 8a 9b bd a0 a0 3c bd 87 9b 99 3d
       0.103219114 -0.07594793 -0.04605162 0.075003676
000210 60 b0 0d be 74 12 d7 3d f9 75 a4 3d bd 96 0b 3e
       -0.13836813 0.105015665 0.08030314 0.13631721
000220 47 ff ff bc 25 32 fc 3d 31 85 10 3c 28 62 e9 3d
       -0.031249655 0.12314252 0.008820818 0.11395675
000230 92 94 fa 3c c6 ce 9b 3c 3b 1b d4 bd 5b 1c c1 bd
       0.030588422 0.019019496 -0.10356756 -0.094292365
000240 03 16 ac 3d 75 56 09 3d a1 09 4a bd 32 69 10 3e
       0.08402636 0.033529717 -0.04932559 0.14102629
000250 87 c5 e6 bd 9d d9 89 3d aa 67 10 3e 07 f7 f0 bc
       -0.11268144 0.067309596 0.14102045 -0.029414667
000260 ce 4f 9d 3c a0 11 c7 3d f5 c6 3a bc d1 f2 e9 3b
       0.019203093 0.097201586 -0.011399974 0.0071395417
000270 da cc a6 3d 43 04 85 bc b4 a8 5e bd 5d 38 65 3d
       0.08144541 -0.016237384 -0.054360107 0.055961955
000280 d8 7b b7 bd f9 95 03 be a6 3b a4 3c 09 8f 2b bd
       -0.08959168 -0.12850179 0.020047974 -0.041884456
000290 e0 4e a2 3c 7d 89 24 3d ed c8 a2 bd 47 59 52 bd
       0.019813001 0.04017018 -0.0794848 -0.051354673
0002a0 96 99 0f 3e 22 08 e6 bc af c4 17 bd 03 56 1b bd
       0.14023432 -0.02808005 -0.037052806 -0.037923824
0002b0 20 5e ed 3c f1 16 e6 3c 55 95 0a 3d a6 c5 83 bd
       0.028975546 0.028087111 0.03383382 -0.06434183
0002c0 0a 45 3b 3d b4 f8 cc 3d b2 23 cd 3d d5 9c 0c be
       0.045720138 0.10008374 0.10016574 -0.13731702
0002d0 76 6b 0d 3d 74 19 77 bd 65 c6 3c bd bc 9d e1 bd
       0.03452631 -0.06032701 -0.04608764 -0.110164136
0002e0 9a 42 b5 3c fa f6 aa bd f8 c4 bb bd 89 a7 c8 bc
       0.022126485 -0.08347888 -0.09168428 -0.02449395
0002f0 ed 00 81 3d ef 8d 91 3d 38 f2 9b 3d 24 b3 0a be
       0.06299005 0.0710715 0.07614559 -0.13544899
000300 d0 b7 96 bd ab 67 12 3d 8e 55 d3 bd 3c be aa bd
       -0.07359278 0.035743397 -0.10319053 -0.083370656
000310 4d dc 84 bd 6b e8 9a 3d ec 38 22 3d 57 5e 11 bd
       -0.064873315 0.075638615 0.039605066 -0.03549036
000320 25 41 4f bd 4c 60 20 3d 87 b9 d9 3c ae 8f f8 3d
       -0.050599236 0.039154336 0.026577724 0.1213678
000330 e5 07 9e 3d 22 b3 b2 bc 67 00 7c 3b ac a2 5d 3d
       0.077163495 -0.021813933 0.0038452388 0.054110214
000340 8c c4 6f 3c 73 97 46 3d 05 0c d1 3d ae dd 6d 3d
       0.014634263 0.048484277 0.10207371 0.05807274
000350 b6 b5 c5 bc 2f ab 0a be d8 c7 33 bd 11 03 93 3d
       -0.024134498 -0.13541864 -0.043891758 0.07178319
000360 9f fb d0 3d df 50 65 3d a9 ca 96 bd 6b 94 e9 bd
       0.10204243 0.055985328 -0.07362873 -0.114052616
000370 82 c5 09 3e 57 07 bc bc bc 16 9e bc 17 c6 41 bc
       0.1345425 -0.022952719 -0.01929795 -0.011827013
000380 06 3a af 3d f5 07 cb 3d a0 3b 63 3d c1 33 c1 3d
       0.08555989 0.09913627 0.055476785 0.094336994
000390 d3 88 c5 3d 78 d4 db bd c3 3b 0a bd 21 19 50 bd
       0.09645238 -0.107338846 -0.0337484 -0.050805215
0003a0 1f da 9e 3d 69 fe 98 3d 73 72 12 3b 5a b4 c8 3d
       0.07756447 0.074704 0.002234605 0.09800024
0003b0 cb 61 06 be a1 d6 1c bd 66 51 06 3a 9e bc cd bc
       -0.13123243 -0.038290624 0.00051238236 -0.025114354
0003c0 fd 8b a9 3d cf 4f 0f bd 8b 00 b6 3d ab 12 46 bd
       0.08278654 -0.03498822 0.08886822 -0.048357647
0003d0 11 5f 98 b9 f6 4b 0c 3c f5 f6 c5 3d ba 85 1d bd
       -0.0002906253 0.008563032 0.09666244 -0.03845761
0003e0 f3 51 c1 bc f0 c8 cf 3d 0a 9b de 3d 2e 28 aa bd
       -0.023598647 0.10145748 0.10869415 -0.08308445
0003f0 2b f5 45 3d 72 1d 38 3c 90 c9 e9 bd 57 bc f1 bd
       0.048329514 0.011237489 -0.11415398 -0.11803501

head.0.bias f4 [32]
000000 01 ff c8 bd 98 a0 31 3d e4 4c 93 3d 19 30 ec 3c
       -0.09814263 0.043366045 0.071924 0.028831528
000010 de 47 0e be ac 54 27 bd a4 28 83 bd 38 68 e6 bd
       -0.13894603 -0.040852234 -0.06404236 -0.11250347
000020 cc e1 e2 bd b7 27 d7 3d 25 f7 24 bd 1d 3a b3 bd
       -0.110782236 0.10505622 -0.040274758 -0.087513186
000030 90 d0 5e bd 48 6a aa bc 33 80 82 3d af ca 0f be
       -0.05439812 -0.020802632 0.06372108 -0.14042161
000040 1b c9 22 bd ab 41 de bc 5f bb 6e 3d 8e 0b 8e bd
       -0.03974257 -0.027130922 0.05828416 -0.06935798
000050 bc 33 0b bd 2a a7 89 bd 6b 8c 94 ba b1 cc b5 3d
       -0.033984885 -0.06721337 -0.0011333352 0.088769324
000060 70 7c 58 bd 88 9e 89 bc c1 d4 83 bd d2 8b 8b 3c
       -0.052853048 -0.016799226 -0.06437064 0.017034445
000070 54 6a a4 bd 53 48 4f 3d 06 de fe bd 12 14 95 3d
       -0.08028093 0.050606083 -0.12444691 0.07279219

head.2.weight f4 [1, 32]
000000 89 f4 d1 3d be 63 30 be 93 c1 c7 bb 2a 9b c2 bd
       0.102517195 -0.17225549 -0.006096074 -0.095022514
000010 1f e9 8b bd cc bb a7 3d 16 bb ce bd 84 65 cc 3d
       -0.06831574 0.08190116 -0.100942776 0.099803
000020 9d b2 9f 3d fe be 4a 3e de 66 6c be 32 40 08 be
       0.0779774 0.1979942 -0.23086116 -0.13305739
000030 9e 5a ea 3d a7 3c 0b bd 37 96 76 bd 38 f8 84 bd
       0.11443065 -0.03399339 -0.06020185 -0.064926565
000040 ac 0e 5e 3e a4 b3 05 be e0 f6 9f 3d 2f e6 0f 3d
       0.21685284 -0.13056809 0.078107595 0.03513163
000050 99 25 8d bd d6 f9 cd 3d 86 67 2a 3e c4 a3 23 3e
       -0.06891937 0.10057418 0.16641054 0.1598044
000060 b4 1b 43 3d b4 60 40 3d 38 ae d0 3d 86 57 06 bd
       0.04763384 0.046967223 0.101894796 -0.032798313
000070 26 a3 10 be 38 94 3c 3d 3a e0 85 3c d8 5b 20 3e
       -0.14124736 0.04603979 0.016342271 0.15660036
