nssm_best.pth (torch, 20009 bytes, 7 tensors)

gru.weight_ih_l0 f4 [96, 3]
00000000: 5ddd df3d 4930 573e 4722 0d3d 1344 933e
00000010: ef80 f1bb 1abd 263d aa27 54bc c045 0b3e
00000020: bb2d 2f3e 2e4d 2bbe d556 013e 3d2d af3c
00000030: ca3f 7b3e b8b9 8e3d df25 ad3d c526 a33d
00000040: 682f 283e 5f53 dd3c 16e2 1f3d 3102 883d
00000050: 1868 a2bd 133d 223d 4418 20bd 2a7f 0f3e
00000060: 0ee9 a6be f90a adbd f6d0 11bc 3601 d13c
00000070: cca2 163d 072a 3bbe b8a3 a33e f9da f9bd
00000080: 809a 0a3e 48fe d63b 562a 2abd fd33 d13d
00000090: bec3 323e 612b 273e e3b0 9b3c 1ab0 8bbe
000000a0: 8b87 813d 551a 033d bf81 4c3e 3105 493e
000000b0: b039 143e c1b2 27be 0c8c 2c3e 3de9 eb3d
000000c0: dace 6b3e c919 82bd 2f4e 21be 98d6 d83c
000000d0: 0f3c d1bd bc9e 203e 4ea9 fc3d 23a3 0e3e
000000e0: 8acb bc3d 0fca c13d 5f1e 293e e6f4 f4bd
000000f0: a7d4 393e 4bec 80bd 1074 a23d 4cf0 863c
00000100: 7a7b c33d 1bf7 66bc 6245 8f3e 6792 b4bd
00000110: 0ee8 f0bd fa30 c13c 53af 763e 10c2 d43d
00000120: 8c4a 8c3e 23a7 f5bd 8a42 34be 4d3c 1fbc
00000130: ce4a b9bd 8374 a33d 8efe 393e 378f 2e3e
00000140: 35fd e3bd 4745 54bd b728 0d3e 292c 40bc
00000150: 8c4c 733e 3544 b2bc 3c6e c13d 252e 8abc
00000160: 4051 0ebd d3f9 ac3d a1ec 333e 031a 0b3c
00000170: 8c9a 0e3e 257e 733e 778a b9bd 7a3f 96bd
00000180: 6dfa e73d 3e3b 6abd a6d1 6cbd fcbf a0be
00000190: a57e 87be 4374 fdbd 2c93 69bd e5d8 03be
000001a0: 6335 1b3d f059 53be 6491 49be 3fb3 16be
000001b0: 919a 99be 46a7 75be 9845 9a3d b36b f4bd
000001c0: 17c9 f1bd 024f b8be 9904 94be c44b 6cbe
000001d0: 8577 1abe 9b25 20be eead 0ebd eef0 2abd
000001e0: c959 79be 0a6f 74be 13f5 58be 6180 92be
000001f0: c756 99be 34c7 91be 074c 80be 8a71 a1be
00000200: 41bd fabc eca3 f5bd a80c 883d f731 e4bd
00000210: 2cdc 98be f99c 1bbd 8ae9 58be 379d 98be
00000220: 3408 65be d961 98be cf0c 29be 46ef 70be
00000230: 6ffd 1ebe d85e 50be eff2 f63d 383d fabd
00000240: 731e 5dbe fec6 fdbd ab67 a8bd 37ec 1c3c
00000250: 4fa1 a23c 11a2 8fbe b1f0 f8bd 6292 74be
00000260: 8f44 4cbe 5f8e a93c 3185 9d3e bfdc 063d
00000270: 56c6 debd ea27 18be a300 26be 19ae ffbd
00000280: 0b2f 263e 4553 5a3d cc2c 1bbe 28f0 aabe
00000290: dd00 e3bd a658 53be 7bb9 86be 500a 48bd
000002a0: bc9d bbbd efc1 68be 7a42 53be 4ce4 3bbe
000002b0: e483 4bbd d46b 51be aa56 76be 57b0 61be
000002c0: 8fdc 96be c58f 0a3e 8578 473e b13a b6bd
000002d0: 6a03 c1bd 2017 a8bd e5e0 10be 4359 6bbe
000002e0: 1690 91bd 498a b1bd c019 d1bd 100e 6cbe
000002f0: a27e 8bbe 644c 14be 514b 4ebe fcfe 61be
00000300: 0c1d 123e 8216 db3d 9546 83bd c1f2 e7bd
00000310: 772e 82bc 231e 98bc a507 07bc a521 953c
00000320: bc30 37be 577d cebd e5e8 363e c047 e83d
00000330: 91b4 96bd 169d 11be ddc4 f7bd b931 7abe
00000340: 823c 85bd 1e82 863d 6b87 6a3e 7741 aa3d
00000350: a43b 2ebe dc9a 88bd 7015 73ba 5c37 413e
00000360: 72d1 213e eb7d 33bd 8617 763d d100 1fbe
00000370: 633c ffbd d5f7 0b3e e224 ab3c 9072 2abc
00000380: 9ec2 2cbe 0a1e 263e 547c 043e fbec 8e3d
00000390: e4b7 4ebe 2de1 47be 32f1 1ebe 780d 903e
000003a0: 0d2c 593d 7d08 903d cc5c 573e 8ef9 463d
000003b0: de8f 8ebc 3718 2abe 5fec dbbd e453 e8bd
000003c0: c75c e5bc 952a e0bd 820b 32bd 9c04 30be
000003d0: 2e88 62bd f266 fdbd 8ac6 6ebe d7e9 203d
000003e0: f336 54bd 0e27 263d 9256 abbd f47b 16be
000003f0: ec4d 17be ad05 c1bd e0bd 3cbd ee2f f7bd
0.109308936 0.21014513 0.034456518 0.28762874 -0.0073701064 0.040707685 -0.01294891 0.13600826
0.17107289 -0.1672866 0.1263078 0.021383876 0.24536052 0.06969017 0.08454489 0.07966379
0.16424334 0.027017293 0.03903397 0.06641043 -0.079300106 0.039609026 -0.03908564 0.14013353
-0.32599682 -0.084493585 -0.008899918 0.025513273 0.03677635 -0.18277751 0.31960845 -0.12199969
0.135355 0.0065610744 -0.04154428 0.10214994 0.17457482 0.16325141 0.019005245 -0.27282792
0.06324681 0.032007534 0.19971369 0.19630887 0.14475131 -0.16376783 0.16850299 0.11519096
0.23028126 -0.063525744 -0.15752481 0.026469514 -0.102165334 0.15685552 0.1233698 0.13929419
0.092185095 0.09462368 0.16515492 -0.11960773 0.18147527 -0.06295069 0.079322934 0.016472004
0.09545036 -0.0140970005 0.27982622 -0.088169865 -0.11763011 0.023582924 0.24090318 0.10388577
0.27400625 -0.119947694 -0.17603508 -0.009718967 -0.09047471 0.07981207 0.18163511 0.1704682
-0.1113228 -0.05182388 0.13785063 -0.011729279 0.23759669 -0.02176104 0.09444854 -0.016867707
-0.034745455 0.08446088 0.17570736 0.008490088 0.13926142 0.23778589 -0.09059613 -0.07336326
0.11327062 -0.057185404 -0.057817124 -0.31396472 -0.2646381 -0.12375691 -0.05702512 -0.12875707
0.03789271 -0.20639777 -0.19684368 -0.14716814 -0.30000737 -0.23989591 0.07532805 -0.119346045
-0.11805933 -0.35997778 -0.28909758 -0.23075777 -0.15084656 -0.15639345 -0.03483384 -0.041733675
-0.24350657 -0.23870483 -0.21187238 -0.2861357 -0.29949018 -0.28472292 -0.25058004 -0.31531936
-0.030607821 -0.11994156 0.06643039 -0.111423425 -0.29855478 -0.037991498 -0.21182838 -0.29807445
-0.2236641 -0.29762152 -0.16508792 -0.23528776 -0.15526365 -0.2034868 0.12058055 -0.12218708
-0.21593647 -0.123914704 -0.08222898 0.009577802 0.019852309 -0.28053334 -0.12155283 -0.23883966
-0.19948028 0.02069777 0.3076568 0.032925364 -0.10877673 -0.14858976 -0.1621118 -0.12484378
0.16228883 0.05330207 -0.15153807 -0.3338635 -0.11084149 -0.20639285 -0.26313385 -0.04883796
-0.09160945 -0.2273023 -0.20630828 -0.18348807 -0.049686328 -0.2045129 -0.24056497 -0.22039925
-0.29465148 0.13531406 0.19479568 -0.08897913 -0.09424479 -0.08207536 -0.1414829 -0.2298327
-0.0710756 -0.08668954 -0.102099895 -0.2305224 -0.2724505 -0.14482266 -0.20145918 -0.22069925
0.14268893 0.106976524 -0.06409947 -0.113255985 -0.015891297 -0.018569058 -0.008241569 0.01820452
-0.17889684 -0.100825004 0.1786228 0.1134181 -0.07358659 -0.1422008 -0.120980956 -0.2443303
-0.065056816 0.06567787 0.2290322 0.08313268 -0.17014939 -0.06670162 -0.0009272909 0.18868774
0.15802553 -0.043821257 0.060081027 -0.15527655 -0.1246269 0.13668759 0.02089161 -0.01040329
-0.16871116 0.16222396 0.12938052 0.06978794 -0.20187336 -0.19519491 -0.15521696 0.28135276
0.053020526 0.07032869 0.21031493 0.048577838 -0.017402586 -0.166108 -0.107384436 -0.11344126
-0.027998341 -0.10945622 -0.043468006 -0.17189258 -0.055305652 -0.12373151 -0.23317924 0.039285507
-0.051810216 0.04056459 -0.08366121 -0.14695722 -0.14775819 -0.09424911 -0.046079516 -0.12069689

gru.weight_hh_l0 f4 [96, 32]
00000000: 43b7 4c3d abb1 f0bd fdce edbd de49 e03c
00000010: 32b4 84be 5e5a 80be 71ee 053e b50d b53c
00000020: 4954 9ebd 443b b3bd b1f5 363c fee6 83bd
00000030: 6dad a7bd 2847 ecbd 0e92 e53c 1a83 cabc
00000040: ca98 73be ff90 913d b895 0abe 7bd6 293c
00000050: d6d1 25be d6b6 ae3d 340a 743e 5f73 00bd
00000060: 66c7 72be d324 3bba 8327 703e 7395 383d
00000070: 10a3 e33c 6c4f da3d e3db 303d 0338 093e
00000080: 7835 48bd 0363 a7bd c65c d93d 406c 463a
00000090: da9d 0ebe 0ead 44be 457e 4dbd c582 47be
000000a0: 6ac4 18bd ac2e d8bd 5dc5 1e3e 6a11 c93c
000000b0: f916 32be 8552 34bd 7b4a 1b3e 00fa 3dbe
000000c0: 27d3 7bbd 25ca 2a3d 0543 14be 58f9 34bd
000000d0: 4487 80bd a275 79bc 3f30 3ebd 830a 69be
000000e0: 04b6 3bbe 48d7 08be d04e 683e 6c03 fabd
000000f0: ca21 2fbe d339 34bc 50da 943d c411 073e
00000100: a9ff 163e 480e 113d d773 65be 4b44 ecbc
00000110: f439 4d3d 27a6 a0bd bb9e ddbc 6e76 443e
00000120: b342 9d3b e76f 31be b1c9 cabd cf67 2dbd
00000130: 6fa7 de3c 465f 783d d22e c33d ef70 11be
00000140: a0d3 6abe 7295 5ebd 3977 c83d 5399 ab3d
00000150: 4692 27be 16a2 083d 8163 97bd a56b 2bbe
00000160: baa1 26bd fea4 493d cec4 533e e3d1 8cbe
00000170: 4056 4c3d 92ec 38be fe35 b73d d4ad 513e
00000180: 86e9 54bd 67af 253e 2792 21be f4ca 21bd
00000190: a4ec af3d fb39 d4bc 7388 53bd fde5 5abc
000001a0: a0a1 a83d 4c44 ac3d cd61 ce3d a57d c2bd
000001b0: 3619 0abe dfa6 1cbd 5f1d 243d b619 dbbc
000001c0: 6483 51bd 37cc 043e 2fc6 063d 9bfa f33c
000001d0: 6e0b 1fbd e160 15be 3c51 32be f25a a6bd
000001e0: a366 f4bd 85fe 8a3d a5a6 7bbd 6501 64bd
000001f0: 868a 2b3e 9f0b a43d 94ac 1e3e 1aa2 98bd
00000200: e1ca 46bd 343f dabb feb6 2abe 2672 44be
00000210: f3da 89bd 9000 0ebe 2fd4 eebc a427 073e
00000220: ddef 803e 0e1d 60bd 23f3 1a3d ddb5 4bbe
00000230: fc8c fabd 2997 c83d a225 253e de0f cabc
00000240: 59f6 12be e449 043d ac84 5fbe 48b7 c63d
00000250: 8d15 10be 8968 7b3d b428 f43c 0ffb 94bd
00000260: 433e 03be e7ce 953d da19 833d 12aa 763c
00000270: 63bd bd3d 6309 1ebe 0f95 8abd 3bd2 4c3e
00000280: cae3 573e 873f 26be 0caf bbbc a845 6cbe
00000290: d0bc 22be 79c2 ecb9 70f3 c93d fcf1 683b
000002a0: eaf3 953c a8e4 f73d 19a4 123d f1fb d8bd
000002b0: 3502 0fbd dba5 003e 2b0a cd3d aba0 3cbe
000002c0: a2ce 303d c292 f1bd de1a 46be 6c5b e3bd
000002d0: 389c 0e3e 47e9 263e a82d 3e3e 31fe 5c3d
000002e0: 9cc9 e83d ec27 44bd 9405 72bd 5f3b 7c3d
000002f0: 0d67 00be 4c23 21be 4ddc 7cbd e715 5d3d
00000300: 9199 dd3d a24a d6bd a160 ffbd 3ab3 36bd
00000310: ff5a 08be 41f8 1cbe 72b9 173e a67b 49bc
00000320: b342 693e 6aed 013e a8af d13d 49b9 9f3d
00000330: b45c ea3b 1162 653d 0be3 853d 534c fbbb
00000340: 0e95 103d c633 063e 7bc6 c7bd 97c5 cabd
00000350: 9872 a5bd b75a 84bd aeb3 843d a1fe 963d
00000360: 657c d63d 005f 4e3d 0261 a9bd f0ac a8bd
00000370: 24a2 a5bd 0142 9abd 87cc 773d 145e 06be
00000380: 7aff 813d 851a 49be f3a9 27be 99cb 32be
00000390: f011 bc3d 6193 65be 8c33 4d3e 5f33 093d
000003a0: 310c 073d 77f1 133d 1e9b 293d 1254 933d
000003b0: 0462 9a3d ae62 0dbe 60c8 fd3d 521c d33c
000003c0: bec3 cdbc 5790 dcbc 01da 0fbc 051c dabd
000003d0: 2fa6 aebd 76c9 653e 6661 2f3e 7ef1 babd
000003e0: 8283 75be 1444 14bd 384b 82bd a92c 743d
000003f0: e8a1 32be fcd5 82bd 4e33 d2bc 0a9c ba3d
0.04997946 -0.117526375 -0.116117455 0.027378973 -0.25918728 -0.25068945 0.1307924 0.022101263
-0.0773092 -0.087515384 0.011166976 -0.06440543 -0.08187375 -0.115370095 0.028023746 -0.024720717
-0.23788753 0.07107734 -0.13533676 0.010366078 -0.16193327 0.08530967 0.23832017 -0.031360026
-0.23708877 -0.0007138971 0.23452573 0.0450644 0.027787715 0.1065968 0.04317845 0.13400273
-0.048879117 -0.08173182 0.10613398 0.0007569231 -0.13927403 -0.1920664 -0.050169248 -0.19483478
-0.03729669 -0.10555777 0.15504976 0.024544436 -0.17391576 -0.04402401 0.15165131 -0.18552399
-0.061480667 0.041696686 -0.14478691 -0.044183105 -0.062758 -0.0152258 -0.04643273 -0.22757916
-0.18331152 -0.13363373 0.22686315 -0.12207684 -0.17102733 -0.0110001145 0.07268202 0.13190371
0.14745964 0.03541401 -0.2240747 -0.028841158 0.050104097 -0.07844191 -0.027053228 0.19185802
0.004799211 -0.17327844 -0.09901751 -0.042335328 0.027179448 0.060637735 0.09530415 -0.14203237
-0.22932291 -0.05434174 0.09788365 0.08378854 -0.16364393 0.033357702 -0.07392026 -0.16740282
-0.04068158 0.049229614 0.20680544 -0.2750388 0.049886942 -0.18058994 0.08945845 0.20476466
-0.051980518 0.16180192 -0.15778409 -0.03950019 0.085900575 -0.025906553 -0.0516438 -0.013360498
0.082339525 0.08411464 0.10077248 -0.09496621 -0.1348618 -0.03824508 0.040067073 -0.026745658
-0.051150694 0.12968527 0.032903846 0.029782584 -0.03882926 -0.14587738 -0.17413801 -0.08122815
-0.11933639 0.06786827 -0.06143822 -0.055665392 0.16752061 0.08010029 0.15495521 -0.074527934
-0.048533324 -0.0066603664 -0.16671368 -0.19184169 -0.067312144 -0.13867402 -0.029153911 0.13198715
0.25183 -0.05471521 0.03782953 -0.19893594 -0.12233922 0.097944565 0.16127637 -0.02466577
-0.14351787 0.03229703 -0.21827954 0.09702927 -0.14070721 0.06137899 0.029804565 -0.07274448
-0.1281672 0.07314854 0.06401415 0.015055196 0.09264638 -0.15433268 -0.06766712 0.20002072
0.21082988 -0.16235171 -0.022910617 -0.23073447 -0.15892339 -0.0004515832 0.09860885 0.0035544625
0.018304784 0.121041596 0.035801027 -0.10594929 -0.034914214 0.12563269 0.10011705 -0.18420665
0.04316581 -0.1179557 -0.19346187 -0.11101422 0.1392678 0.16299926 0.18572104 0.053953353
0.11366579 -0.047889635 -0.05908735 0.06158006 -0.12539311 -0.15736121 -0.061733533 0.053975966
0.10820306 -0.10463454 -0.124696024 -0.044604518 -0.13315962 -0.15329076 0.14816836 -0.0122975465
0.2277935 0.12688223 0.10238582 0.07799012 0.0071521644 0.056001727 0.06537446 -0.0076690107
0.0352984 0.13105687 -0.09754654 -0.099009685 -0.08078498 -0.06462615 0.06479584 0.07372785
0.10472945 0.050383568 -0.08270456 -0.0823611 -0.080875665 -0.075321205 0.060497787 -0.13121825
0.063475564 -0.19639023 -0.16373424 -0.17460479 0.09183109 -0.22419502 0.20039195 0.033496257
0.03297061 0.03611895 0.041407697 0.071937695 0.07538226 -0.13807175 0.12391734 0.02577034
-0.025117751 -0.026924295 -0.0087800035 -0.106498756 -0.08527791 0.22440132 0.17126998 -0.09128092
-0.23975947 -0.036197737 -0.06362003 0.059612904 -0.17444575 -0.063884705 -0.02565923 0.09111793

gru.bias_ih_l0 f4 [96]
00000000: c6e3 b73d 341b e2bd 6853 103e dcc8 6c3d
00000010: 3f82 b1bd 9e98 003e 1436 4c3d f4da 41bd
00000020: 94ec 263e 10a7 db3d f6c4 c33d 007d 88bd
00000030: c767 6fbd a8b5 67bd 3576 023e 0954 ff3d
00000040: 89d6 6bbd 550b 583e bc84 343e 8dc8 d9bc
00000050: 896a 1f3e c563 5bbc cb73 aa3d d6e1 693e
00000060: 7e02 d9bd 1459 41bd 5d4a b43c 69f4 bc3d
00000070: b156 f6bd c54c 48bd fd75 e63c e48c c13c
00000080: 1a5b dcbb 7f9c 21be a811 8dbb 8cea a6bd
00000090: 7797 15be bfd3 54be 0bb1 05be a3d5 013e
000000a0: 1882 a2be d13c 95be e10a efbd da36 87be
000000b0: 34e8 7bbd 74b5 cbbd 958b 5ebe 63f6 f2bd
000000c0: 18c5 39be ca29 9abe 5333 b3be 98d5 b23e
000000d0: 3da7 cabe 7921 2bbe d2fa 89be 5e2d 53be
000000e0: 9c9a e9bd e186 88be 1836 47be e047 f33c
000000f0: e505 20bd f724 0ebd 522a 25be 9bd1 47be
00000100: bdd5 d93d f7f3 29be 08e7 0c3d 33a8 94bd
00000110: 28cd c83d 40cf 2abe 4071 9b3d 2140 ebbd
00000120: 5d56 e63d 3a5d 243c 550c 3b3e 8a78 09be
00000130: 8988 ac3d d5db 1bbe d954 a8bd 30f8 ea3d
00000140: 4c84 68bd 311c 33be 9878 32be 8e3b adbd
00000150: 6bf5 0a3d 0f9c 4a3e 1ab7 233e d67f 94bc
00000160: 2d27 17be 7ed4 33be d417 3c3e c9aa efbd
00000170: d447 4cbd 3cb8 20be b9d6 cbbd 5a5e 843d
0.08978991 -0.11040345 0.14094317 0.057808742 -0.086674206 0.12558219 0.04985626 -0.04732795
0.16301185 0.10725224 0.09559052 -0.06664467 -0.05844858 -0.056569725 0.12740405 0.124672
-0.057577644 0.21098073 0.17628759 -0.026584888 0.15567984 -0.013390486 0.08322867 0.22840056
-0.105961785 -0.047204092 0.022008115 0.09226305 -0.12028254 -0.048901338 0.028132433 0.023626752
-0.0067247273 -0.15782355 -0.0043050833 -0.08150205 -0.1460856 -0.207839 -0.13055818 0.12679152
-0.3173988 -0.29147962 -0.11671997 -0.26409036 -0.061500743 -0.09946719 -0.21732934 -0.11863401
-0.18141592 -0.30110008 -0.35000095 0.34928584 -0.39580718 -0.16711988 -0.26949173 -0.20622775
-0.114064425 -0.26665404 -0.19454229 0.029697359 -0.03906812 -0.03470322 -0.16129425 -0.19513552
0.106364705 -0.16596971 0.034400016 -0.07258644 0.098047554 -0.16680622 0.0758996 -0.11486841
0.11246941 0.010031993 0.18266423 -0.13424888 0.084244795 -0.15220578 -0.082193084 0.11473119
-0.056766793 -0.17491223 -0.17428815 -0.08458625 0.033925455 0.19786094 0.15987816 -0.018127363
-0.14761038 -0.17561528 0.18368465 -0.117024966 -0.04987319 -0.1569528 -0.099530645 0.06463309

gru.bias_hh_l0 f4 [96]
00000000: 60f8 263c 2daa 763d 7fbb 483d a4fb 5ebb
00000010: 65d5 c13c 4780 a43c 54a1 db3d fe3e 313e
00000020: 7b95 253e 7f35 e7bd e47d edbd fe80 e0bc
00000030: 54c4 cc3c cc62 0b3e 39db 683e 5ac5 fa3d
00000040: 7e61 9ebd 62af f63c ac1f 403e eb5b d93d
00000050: f708 79bd e42c 933d 6a5e 12be 4453 243c
00000060: c337 323e ad6c 13bd 504a 0f3e 1457 a0bd
00000070: 7cbc 393e 795d 1b3e 9f72 233e a774 c73d
00000080: f46c 04bd 96e1 88be ae6d 0dbe 9fc4 5bbe
00000090: 2a5c a6bc 7b9a 84be 2a4a 42be 59e3 23be
000000a0: 6118 3abe d233 85be f6e0 abbe 763f eabd
000000b0: 7faf adbe 0b51 4bbe f446 c6be 7718 8f3d
000000c0: 6f7a a7be 39a3 07be 1bd2 d3bd 0b43 2a3d
000000d0: 0885 fbbd 9ffd fc3d be4d 9ebe 4d2f 4ebe
000000e0: c2bc cebd deb7 07bd 90e1 20bd f603 a2bd
000000f0: 8881 a9be 4a5b b0be 4509 a0be 333e 6bbe
00000100: 7ef1 bfbd dde4 b63d a74c 26be ee99 e1bd
00000110: 282a 39be fe4d eebd 8b5e 3d3e a94a 5e3d
00000120: c2be 02bd 82a7 9cbd 7150 c7bd ffee 77bd
00000130: fec6 7e3d 2383 9a3d 3fbf 0f3e efbd 903d
00000140: 62b1 06be 951d 0dbe dfd7 163e ab72 4cbe
00000150: 05ba b63c b2ed ed3c e86f 4c3e f127 a63d
00000160: 249f b6bd 496a 28be d3b9 533d 53df 0dbe
00000170: 53c7 28bd 5a97 083d 6428 e53d 52b0 54bc
0.010191053 0.060220886 0.049006935 -0.0034024501 0.023661325 0.020080699 0.1072413 0.17309186
0.16170304 -0.112895004 -0.11596277 -0.027405258 0.02499596 0.13611907 0.22739877 0.12244673
-0.07733439 0.030112926 0.18762082 0.10613235 -0.060799565 0.071862966 -0.14293829 0.010029618
0.17404084 -0.035992313 0.13993192 -0.07829109 0.18138307 0.15172376 0.15961693 0.097390465
-0.03233047 -0.26734608 -0.1381137 -0.21461724 -0.02030762 -0.2589911 -0.18973604 -0.16004695
-0.18173362 -0.26016098 -0.3357007 -0.114378855 -0.33922955 -0.19855134 -0.38726008 0.06987088
-0.32710597 -0.13245858 -0.10342809 0.041567843 -0.12281233 0.12353062 -0.30918688 -0.20135231
-0.100945964 -0.033134334 -0.039277613 -0.07910912 -0.33106637 -0.34444648 -0.31257072 -0.22972946
-0.09372233 0.08930371 -0.16240178 -0.11015688 -0.18082488 -0.116359696 0.18493097 0.05427042
-0.031920202 -0.07649137 -0.0973214 -0.06053066 0.062201492 0.075445436 0.14037798 0.07067477
-0.13153604 -0.13780816 0.14730786 -0.19965617 0.022305498 0.029044006 0.19964564 0.08113087
-0.089170724 -0.16446795 0.051690888 -0.13854723 -0.041205715 0.033347465 0.111893445 -0.012981491

obs.0.weight f4 [16, 32]
00000000: a222 cabd 6467 53be aa8f 53be 109c e1bc
00000010: fdb2 23be a0c5 39bd 508a a5bc 855f e7bd
00000020: ab7d 4b3e 3f63 223c 525d 363e 160f 333e
00000030: db8c 38be 36aa 13bd bff0 09bd dacc b23d
00000040: ff99 653d 714c ca3d ba35 3fbe cc14 02be
00000050: 2f33 d33d c777 e3bd 2ff3 94bd 9589 12bd
00000060: 3a52 56be 8142 b9bd 3e20 0b3e e480 313e
00000070: c951 aebd 48ee 58be 095a 003e 2327 733e
00000080: 8362 06be cce9 ffbb f7f1 02be 2add b8bd
00000090: cfab 733d c323 a93d 19b5 953d d07f 2abe
000000a0: 1f89 2fbd 664c 9a3d 876b 86bc a8d9 5fbd
000000b0: 1e03 bbbd 73a3 2b3e fde5 10be 9797 0ebe
000000c0: 52e9 033e 63e7 dbbd e8c5 da3d 2892 c7bd
000000d0: 26e7 c3bc bdec aebd 9b8f 153e 0ffd fa3d
000000e0: c02b 0b3c b0e4 8a3b 97a1 88bd 6984 c1bd
000000f0: e0f0 88bd bc19 6d3d e73c 02bd 6dbe f53d
00000100: 036d 3c3d 9f51 5bbd b347 18be 36f8 b33c
00000110: 0cc8 5cbe 9c25 26bc 4de7 003e b55d 1a3d
00000120: 6865 4e3e 06c3 34bd 5c50 7d3b 7a91 f3bd
00000130: 401b 5dbe 85de 153e 69d4 453e 8634 2abe
00000140: 0669 c3b9 e0c3 dfbd d2a7 b03d e654 bdbd
00000150: 25ce 9f3d b5e8 1d3e 7ddd 113e 7e6e af3c
00000160: 42be 633a c29f a33c a5ec b7bd 6ac8 49bc
00000170: e947 adbd bb38 fd3c d6e3 35bd 689a 103e
00000180: f7e0 0d3e 4eaf 0e3c 0250 443d 2ab4 d3bd
00000190: 3661 dc3c 16db ffbd 9e98 713e e08d 68bb
000001a0: b378 013e 7357 84be 8a91 753e 1de4 383c
000001b0: 40d6 8c3d b536 d3bc f38c 81bc b358 80bd
000001c0: 3531 4abe a6b1 a0bc 8de6 a6bd 1bdf cabd
000001d0: 2df7 ce3c acbb 103e e1e5 d1bd f961 84be
000001e0: 5e57 303d d943 21be 9300 e73d 806a b53c
000001f0: 8d30 43bd 3b11 2ebe a18e 983d 2fb7 5b3b
00000200: bb6f 72bd c227 10be fb23 463a 098b 8c3d
00000210: 7a6e 66bd 3b29 52bd 2ae9 513e a9d1 173e
00000220: 912d 363d ed99 6bbe 4c01 c03d 76da 5d3d
00000230: ad07 43be 584f d8bd 8a3d e63d 2a5d 113e
00000240: 1aac 51be 56a5 04be 384e f7bd 944d 40be
00000250: 1779 33be 8d53 2c3e cbdd 363e 583b 68be
00000260: e909 4dbd 8f16 3bbe ceb9 063e ac05 c8bd
00000270: 9965 1cbe 6aab 09be 1398 363d cccb 353e
00000280: b076 a8bd 657e 413d b6fb 293e 5ed5 cfba
00000290: a80b 623d 6b9a d13c ec7a 69bc d973 e23d
000002a0: a094 af3d eab5 9ebd db2d 083e c4ca da3d
000002b0: 8158 47bc 2807 153e 217b cfba 7c42 f63d
000002c0: bc7b 0abe e136 2f3e a2a3 373e aae6 eebd
000002d0: 0e96 10be 02cd 8abd 90fc f8bd 0591 6a3d
000002e0: 894b bb3d f0d9 2bbc 31b0 e03d b9a2 f3ba
000002f0: 77b6 13bd cc0b 0ebe 55f6 843d 4ee2 3cbe
00000300: cc1d f1bc 1c21 5a3d 36f6 b4bd 6de1 ad3d
00000310: 5a54 4c3d dc6d 153e 09a1 9d3d faf5 f6bd
00000320: 7384 45be 0621 60ba b6af 05be 9010 d5bb
00000330: 737c b4bd 2218 41be b165 bfbd 1ca8 0e3e
00000340: 7f91 04bd ef3f 20be a902 8a3d 7895 cb3d
00000350: 5c57 433e e9fa 063d 0315 d83d 29ea 6bbc
00000360: 273b 213e 51a8 c0bd 2fd3 22be a868 c23d
00000370: e335 dc3a f77d 123e a378 08be add5 b53d
00000380: a39d 103e 597d a23d 5983 273e 8d73 ccbd
00000390: 878e c1bc fc6b a43d 7080 9a3d 50ae a6bd
000003a0: a8c5 b03d 5829 30bd 9df3 c8bd 21b3 7a3d
000003b0: 0f24 f0bd 379a 46be b47b 3a3d 7200 ba3d
000003c0: 31f4 bc3d 59f7 ce3a 5258 d1bd 5680 00be
000003d0: 071c 493e 7985 2fbe 3360 f53c 54bd 383e
000003e0: b5ab 1e3e 39d3 b5bd ca85 a9bd b993 eabd
000003f0: 1b68 0d3e 9f35 0fbe 6e9c 12be 8f7b 11be
-0.09869887 -0.20644909 -0.20660272 -0.027540237 -0.15986247 -0.045354486 -0.020207554 -0.11297516
0.19872157 0.009911357 0.17809036 0.17486224 -0.18022482 -0.036050998 -0.03367686 0.087304786
0.056055065 0.09877861 -0.18672839 -0.12703246 0.10312497 -0.1110683 -0.07272946 -0.03577574
-0.20929804 -0.09045888 0.13586518 0.17334324 -0.08511693 -0.21184647 0.12534346 0.23745398
-0.13123517 -0.007809853 -0.12787615 -0.09026559 0.05949002 0.08258774 0.07309932 -0.16650319
-0.04285538 0.07534103 -0.016408695 -0.054650933 -0.09131454 0.1676157 -0.14150234 -0.13925014
0.12881973 -0.10737493 0.10682279 -0.09744674 -0.023913931 -0.08541248 0.14605562 0.12255298
0.0084943175 0.0042386875 -0.06671446 -0.09449083 -0.06686568 0.05788587 -0.031796362 0.119992115
0.0460024 -0.053544637 -0.14871101 0.021968942 -0.21560687 -0.010140803 0.12588234 0.037687022
0.20155871 -0.0441313 0.0038652634 -0.11892982 -0.21592426 0.14635666 0.1931931 -0.16621599
-0.00037271547 -0.10926032 0.08625759 -0.09244709 0.07802991 0.15420802 0.14244647 0.021414991
0.00086877134 0.01997364 -0.08980683 -0.012315849 -0.084609814 0.03091084 -0.044406734 0.14121401
0.13855349 0.008708788 0.047927864 -0.10337098 0.026901823 -0.12492959 0.23593375 -0.0035484955
0.126437 -0.25847968 0.239813 0.011284855 0.068768024 -0.025782922 -0.01581428 -0.06266918
-0.19745333 -0.01961596 -0.08149443 -0.09905835 0.025264347 0.14134091 -0.10248924 -0.25855997
0.04305207 -0.15748538 0.112794064 0.02214551 -0.047653724 -0.1699876 0.07449079 0.0033525934
-0.059188586 -0.14077666 0.0007558462 0.06862456 -0.056257702 -0.05130885 0.20499101 0.14826073
0.04447705 -0.23007937 0.09375247 0.05416342 -0.19045897 -0.105620086 0.112422064 0.14195696
-0.20475808 -0.12953696 -0.12075466 -0.18779594 -0.17526661 0.16828747 0.17858045 -0.22678888
-0.05005828 -0.18270324 0.13156816 -0.09766707 -0.15273131 -0.13444296 0.044578623 0.17753524
-0.08225763 0.04723968 0.16599926 -0.0015856435 0.055186898 0.025586328 -0.014250498 0.110572524
0.0857327 -0.07749541 0.13298742 0.10683206 -0.012167097 0.14553511 -0.0015829542 0.120244
-0.13523763 0.17110778 0.17933515 -0.116650894 -0.14119741 -0.067773834 -0.121575475 0.057267208
0.091452666 -0.010488972 0.10971106 -0.0018587924 -0.036062684 -0.13871688 0.064922966 -0.18445703
-0.029433154 0.05325423 -0.088360235 0.08490262 0.04988513 0.1459269 0.07696731 -0.12058635
-0.19288807 -0.0008549843 -0.1305531 -0.0065022185 -0.08812799 -0.18856862 -0.09345568 0.13931316
-0.03236532 -0.15649389 0.06738789 0.09940618 0.19076294 0.03295413 0.10550883 -0.01439909
0.15745221 -0.09407104 -0.15900873 0.09492618 0.0016800727 0.14305864 -0.1332727 0.08878646
0.14122634 0.079340644 0.16358699 -0.09982977 -0.023627533 0.08028409 0.07544029 -0.08138716
0.0863145 -0.04300818 -0.098120905 0.061205987 -0.11725628 -0.19394766 0.04552813 0.09082116
0.09226263 0.0015790268 -0.10221924 -0.12548956 0.19639598 -0.1714076 0.029953098 0.18040973
0.15495189 -0.08878178 -0.08277471 -0.11453957 0.13809244 -0.13985299 -0.14317486 -0.1420729

obs.0.bias f4 [16]
00000000: e553 033e e449 2bbe 114e 1b3e 9a2b 823c
00000010: 4966 083e bea6 203d 6a56 a2bc 45ee ce3d
00000020: 960d d3bd e00e 203d 4821 863d 6a6d a9bd
00000030: ff87 363d 350e 33be 6242 86bd 7b96 fd3d
0.12824972 -0.16727406 0.15166499 0.015889931 0.13320269 0.039221518 -0.019816596 0.1010404
-0.10305326 0.039076686 0.06549317 -0.08272822 0.04456329 -0.17485888 -0.0655563 0.123822175

obs.2.weight f4 [1, 16]
00000000: c273 463e 56fb 6abe b65c 033e 539d d63d
00000010: eb15 983e 8a04 71be 4973 e1bd 0efe f7bd
00000020: 3ec5 1bbe 1b22 4abd ac44 74be 5278 2f3e
00000030: 5b12 95bd 9866 b33d 64dd bfbe 1418 a63d
0.19380096 -0.2294744 0.12828335 0.10479226 0.29704222 -0.23536888 -0.11008317 -0.12109004
-0.1521196 -0.04934893 -0.23854321 0.17135742 -0.07278892 0.087598026 -0.37473595 0.08110061
